soft_prompt_mistral_qa/best_adapter/adapter_model.safetensors (safetensors, 163960 bytes, 1 tensors)

prompt_embeddings f4 [10, 4096]
-0.08489279 -0.06215075 0.017051151 -0.022392793 -0.016407723 0.0007829438 -0.046239637 0.0015164424
-0.04893245 -0.09909859 0.07679235 0.073553495 -0.0017833663 0.073467284 0.040367253 -0.011145515
-0.019727623 0.0013432992 0.026035788 0.020765334 -0.032873556 0.039649967 0.018104669 0.021056516
0.0715236 -0.053503364 -0.016643807 -0.018976655 -0.05623204 -0.0077337073 0.04989412 0.010895399
-0.11550489 0.017443312 -0.031694062 -0.0014044142 0.024412788 0.0054244087 -0.077945106 0.002622406
0.007487582 -0.017173383 0.0792745 -0.020381933 0.010827659 -0.020008141 0.053035326 0.09809278
0.07594954 -0.009000502 0.044454593 -0.015034752 -0.024908638 0.023688927 -0.015372185 0.01090622
0.052601628 -0.0011909616 0.06275708 0.053942215 -0.0040297965 0.1062285 -0.038661785 0.026495036
-0.015216288 -0.04105447 0.010854331 0.045287102 -0.04542114 -0.014642177 -0.082110874 0.024422292
-0.073578164 0.026396848 0.04292711 -0.008831515 0.028318534 -0.065494224 0.015540586 -0.017524965
-0.10638541 -0.10186581 0.062913194 -0.016940892 0.04007303 0.01755676 -0.07166458 -0.058157712
0.025671951 -0.029380755 0.024002422 -0.019119533 0.013200337 0.05508108 0.017275626 0.0131998975
-0.054087836 -0.061822288 -0.006968766 0.06273083 -0.013752283 0.049261563 -0.095551535 0.04973519
0.015941318 0.003550192 0.04133791 0.003497247 0.03215833 0.009307365 0.029570132 0.007783482
0.15078159 0.10461334 -0.00893621 0.06682786 -0.07150927 0.06005694 -0.10867211 0.0117111495
-0.00968722 -0.06466278 0.011319756 0.023875758 -0.0042912606 0.04953178 -0.009469486 0.0030599856
0.0045421706 0.048222017 0.051721707 0.05273329 0.08148929 -0.035477325 0.052235473 0.0067409216
-0.008480182 -0.041665215 -0.024187835 0.08412391 0.029623019 -0.0530655 -0.02113834 -0.015752237
-0.023845682 0.056549508 -0.002323636 0.060706723 -0.0033540495 -0.029847132 0.07507345 0.0006842136
-0.1016269 0.0042322148 0.038643606 0.012991304 -0.063187495 -0.10709075 0.0048570125 -0.10053151
0.009460596 -0.04772602 0.03733282 -0.0056726164 -0.019648071 -0.026438832 0.032851864 0.03827178
0.08587675 -0.003078835 -0.03576193 -0.007750917 -0.005423442 -0.017549371 -0.033631705 -0.013840837
0.016126413 0.013739175 0.026851201 0.008611489 0.013964638 0.06318706 0.014710269 0.01107236
0.064132325 -0.0403231 0.052587412 0.0038037023 -0.020539979 0.028515365 -0.022604264 0.004960886
0.026186403 -0.052074865 -0.029282272 -0.053577855 -0.012682828 -0.02452908 -0.004678931 -0.055832066
0.035443455 0.05332117 0.03214947 0.10256425 -0.014703861 -0.036125954 0.0060258433 -0.01674618
-0.048292905 -0.022457028 -0.0484525 -0.016866382 -0.00403769 0.007428711 0.009211935 -0.02748345
-0.019066157 0.012484187 0.042730935 0.0041928706 -0.0672296 0.073228434 0.09927575 -0.06667693
0.09024593 -0.040761214 -0.01910179 -0.019716738 -0.01693557 -0.02793272 0.028791925 0.013411114
-0.011339526 -0.03606914 -0.0036362987 0.019278048 -0.01606671 -0.041978657 0.057079688 -0.05219522
-0.08193592 0.027943598 0.07803384 0.016579663 0.051435884 -0.09848904 -0.0010051924 0.03277787
-0.009499303 -0.062182557 -0.036258485 -0.010984139 0.019049337 -0.0783729 -0.020984078 -0.03621247
00000000: 45dc adbd c991 7ebd dbae 8b3c 1771 b7bc
00000010: 7d69 86bc 783e 4d3a c665 3dbd 5dc3 c63a
00000020: 656d 48bd 34f4 cabd 4f45 9d3d 37a3 963d
00000030: d8bf e9ba 0476 963d 2258 253d ae9b 36bc
00000040: d39b a1bc a411 b03a 0149 d53c 101c aa3c
00000050: 6ca6 06bd 0168 223d 3e50 943c b77e ac3c
00000060: f77a 923d 5826 5bbd 9858 88bc ee74 9bbc
00000070: 9153 66bd 0a6b fdbb c75d 4c3d 9e82 323c
00000080: d48d ecbd 47e5 8e3c a2d1 01bd 5214 b8ba
00000090: 54fd c73c 3dbf b13b afa1 9fbd acdc 2b3b
000000a0: 645a f53b 32af 8cbc ab5a a23d 03f8 a6bc
000000b0: 7e66 313c 1de8 a3bc 923b 593d dee4 c83d
000000c0: 6f8b 9b3d d776 13bc 0516 363d 5254 76bc
000000d0: 330d ccbc 480f c23c 9edb 7bbc 01b0 323c
000000e0: ce74 573d 0a1a 9cba c986 803d 83f2 5c3d
000000f0: 620c 84bb 548e d93d d25b 1ebd 1e0c d93c
00000100: bd4d 79bc bb28 28bd 5dd6 313c f87e 393d
00000110: 840b 3abd bee5 6fbc bf29 a8bd 4211 c83c
00000120: 26b0 96bd 343e d83c 56d4 2f3d 0fb2 10bc
00000130: 45fc e73c d621 86bd f19d 7e3c 8490 8fbc
00000140: 98e0 d9bd 069f d0bd a2d8 803d a0c7 8abc
00000150: 9e23 243d 32d3 8f3c e1c4 92bd c836 6ebd
00000160: fc4d d23c e9af f0bc baa0 c43c 91a0 9cbc
00000170: 3a46 583c b39c 613d 9d85 8d3c 6244 583c
00000180: 358b 5dbd 5e39 7dbd 3f5a e4bb 0579 803d
00000190: 4151 61bc 7ec6 493d 86b0 c3bd 20b7 4b3d
000001a0: 5e97 823c 57aa 683b f151 293d 1132 653b
000001b0: 74b8 033d eb7d 183c 103d f23c 940c ff3b
000001c0: 7d66 1a3e 853f d63d 2e69 12bc 0cdd 883d
000001d0: 7473 92bd 44fe 753d 7c8f debd 1fe0 3f3c
000001e0: 25b7 1ebc eb6d 84bd 7f76 393c 1897 c33c
000001f0: b49d 8cbb d6e1 4a3d e725 1bbc 0a8a 483b
00000200: 7dd6 943b 7384 453d 24da 533d ddfe 573d
00000210: dbe3 a63d ac50 11bd ddf4 553d f3e2 dc3b
00000220: 76f0 0abc 25a9 2abd 9125 c6bc 2849 ac3d
00000230: f9ab f23c 365b 59bd 502a adbc d60a 81bc
00000240: 0558 c3bc 75a0 673d 2548 18bb 9da7 783d
00000250: 9dcf 5bbb f981 f4bc 1cc0 993d cc5c 333a
00000260: c421 d0bd 64ae 8a3b c248 1e3d 7ad9 543c
00000270: 7268 81bd 6552 dbbd 9327 9f3b 77e3 cdbd
00000280: 9e00 1b3c 5c7c 43bd 4dea 183d 5be1 b9bb
00000290: fef4 a0bc 4096 d8bc ad8f 063d dfc2 1c3d
000002a0: 26e0 af3d 48c6 49bb 1a7b 12bd 68fb fdbb
000002b0: 21b7 b1bb b3c3 8fbc 66c1 09bd aec4 62bc
000002c0: 8a1b 843c 471a 613c 0df7 db3c 3417 0d3c
000002d0: f0cb 643c 3868 813d 5703 713c d868 353c
000002e0: cf57 833d d629 25bd e665 573d 8947 793b
000002f0: 7543 a8bc 0e99 e93c 942c b9bc ee8e a23b
00000300: de84 d63c 744c 55bd 60e1 efbc 7474 5bbd
00000310: a3cb 4fbc 36f1 c8bc b851 99bb 2ab0 64bd
00000320: 282d 113d 4d67 5a3d 2aaf 033d 350d d23d
00000330: 77e8 70bc cff8 13bd 7074 c53b 492f 89bc
00000340: c8ce 45bd cdf7 b7bc 2176 46bd 5e2b 8abc
00000350: 994e 84bb 8b6c f33b a8ed 163c f924 e1bc
00000360: a130 9cbc 7a8a 4c3c a206 2f3d 5964 893b
00000370: acaf 89bd caf8 953d 1651 cb3d ea8d 88bd
00000380: dcd2 b83d 3bf5 26bd 5b7b 9cbc ff84 a1bc
00000390: 77bc 8abc 29d3 e4bc 0bdd eb3c 4aba 5b3c
000003a0: 6bc9 39bc 3cbd 13bd f84e 6ebb ffec 9d3c
000003b0: 559e 83bc d0f1 2bbd 64cc 693d a8ca 55bd
000003c0: 05ce a7bd f9e9 e43c 35d0 9f3d 13d2 873c
000003d0: 6fae 523d 9fb4 c9bd a9c0 83ba 1642 063d
000003e0: f7a2 1bbc 23b3 7ebd c783 14bd d1f6 33bc
000003f0: 5b0d 9c3c f981 a0bd cde6 abbc 8753 14bd
