soft_prompt_mistral_qa/best_adapter/adapter_model.safetensors (safetensors, 327800 bytes, 1 tensors)

prompt_embeddings f4 [20, 4096]
000000 5c 5d f2 3c 72 0f 5b bc 09 2e c6 bc f7 1d cc bc
       0.029585533 -0.013370382 -0.024191873 -0.024916632
000010 be f0 7d 3d a5 8f b1 3c 85 ef 61 bc 8b 16 49 bc
       0.061997168 0.02167494 -0.013790016 -0.012273441
000020 e0 39 1c bd 0f a1 0e 3c 69 2b f1 3c 77 f3 2e bd
       -0.03814113 0.008705392 0.029439645 -0.042712655
000030 58 1c 58 bd 74 e1 18 bc 0a 38 53 3c 7f ec 9d bd
       -0.052761406 -0.009331096 0.012891779 -0.07711124
000040 b4 21 a3 bd d2 ba 6c bc 90 28 c9 bb 5e 68 39 bb
       -0.07965413 -0.014448838 -0.0061388686 -0.0028290967
000050 aa 7a 1d bd b6 33 c4 bc 79 67 5c bd d0 6c a1 bc
       -0.03844706 -0.023950439 -0.053809617 -0.019705206
000060 16 2c 86 3d 09 87 81 bd a7 97 34 3d d5 73 80 bd
       0.065513775 -0.06324584 0.04408994 -0.06272093
000070 2d d5 13 bd 59 3e 94 bc 04 a5 2a 3d 5f 7d af 3c
       -0.036091972 -0.018096136 0.041661277 0.021422086
000080 bb 91 80 bd a2 ec cf 3c 99 f7 d5 3a 56 21 33 bc
       -0.06277796 0.02538139 0.00163244 -0.010933241
000090 b2 d1 44 bc 5f 78 1c 3c 00 f8 67 bd 11 30 63 bc
       -0.012012886 0.009550183 -0.056632996 -0.01386644
0000a0 eb f3 5a 3c f5 9e b5 bc 84 f5 21 3c 58 4c 8e 3c
       0.013363819 -0.022170523 0.009885196 0.017370388
0000b0 00 8e 23 3d 2f a5 95 bd cc be cb 3d c8 ca e3 bc
       0.039930344 -0.07306897 0.09948501 -0.027806655
0000c0 f9 83 3d bd 1b 28 29 ba a6 47 1a bd d3 82 7c bc
       -0.046268437 -0.00064528146 -0.037665986 -0.01541205
0000d0 bb 34 4a 3d dc 93 3a 3d 86 90 87 bc ec 41 25 3c
       0.049366694 0.045551166 -0.016548406 0.010086518
0000e0 00 f0 32 3d b0 02 5f 3c f1 8f 80 3c a6 44 db bc
       0.043685913 0.013611481 0.015693637 -0.026766133
0000f0 df 4f 30 3d 3d 26 b1 3c a3 a8 b7 bc 2a 98 87 bd
       0.04304492 0.021624679 -0.02241928 -0.0662082
000100 bb 76 b4 bc 50 7d 03 3d e4 3d 54 3d a1 d9 91 3d
       -0.022029271 0.03210193 0.051816836 0.071215875
000110 39 c4 a1 3c c0 3d 9d bd a1 27 44 bd 9a b5 88 3d
       0.019746887 -0.076777935 -0.047889356 0.06675263
000120 ec 95 86 3d 00 20 f8 3c c1 94 b5 3c 3a b8 87 bc
       0.06571564 0.030288696 0.022165658 -0.016567338
000130 a3 50 0b 3d f1 50 27 3b b0 04 cf bc 0c dc bd 3c
       0.034012448 0.0025530423 -0.02527079 0.023176216
000140 33 7f d2 bc c9 11 b8 bd 80 fe 22 3c b8 d4 25 3d
       -0.025695419 -0.08987767 0.009948373 0.040486068
000150 06 77 bf bc 41 fd e6 3c 59 1f 86 bd 45 3f 4d bd
       -0.023372184 0.028196933 -0.06548948 -0.050109167
000160 9a 0c 31 3b 1a 1d 95 bb 98 cf 6d 3c b0 ca 58 bc
       0.0027015568 -0.0045505883 0.014514826 -0.013231918
000170 9d df af bd 04 06 b8 3c 7d 14 cb 3c 0f 38 a2 3c
       -0.08587573 0.022463806 0.024790043 0.019802121
000180 75 9f df 3c 96 cf dd bc 1f 4e 20 ba 83 4b 62 3c
       0.027297715 -0.027076524 -0.00061151566 0.013811949
000190 9f d5 9a 3c 70 da 30 3d 78 57 54 3d eb e5 47 3c
       0.01890069 0.04317707 0.05184123 0.012200813
0001a0 91 ed 1c bd 0c 32 fd bc 15 8b 1f 3d 06 67 3f 3d
       -0.0383125 -0.030907653 0.038951 0.04672911
0001b0 00 94 87 3d e9 10 46 bd 42 0e 5c bd 55 1a f4 bc
       0.06620026 -0.04835597 -0.053724535 -0.029797712
0001c0 cd 3b 52 3c af e0 9a bc ea 7d 6b 3d 1c ad 3d 3d
       0.01283164 -0.018905966 0.057493128 0.046307668
0001d0 71 a4 36 3d 93 ba 28 3c 29 60 bc 3d 42 df bf bb
       0.044590417 0.010298389 0.091980286 -0.005855472
0001e0 e3 72 c7 bb a4 e8 da 3c dc 70 01 bd c4 c4 f0 3d
       -0.0060866936 0.02672226 -0.03160177 0.1175628
0001f0 e3 4f 35 3d 4e 31 a8 3c a0 47 20 3a 20 aa c7 bb
       0.04426564 0.020531323 0.00061141886 -0.0060932785
000200 aa f5 2a 3d fd e4 c8 bc b6 1c 5c bd 8d 28 56 3c
       0.04173819 -0.024523253 -0.05373832 0.0130711915
000210 19 15 9d 3c 94 b9 c6 bb 68 54 54 bd dd ca fb bc
       0.0191751 -0.006064603 -0.05183831 -0.030736381
000220 f5 e1 48 3d 48 80 1c bc 7b d4 23 bd a0 61 2d bc
       0.049043614 -0.009552069 -0.03999756 -0.010582358
000230 62 d5 ac 3c e3 37 2a bc 66 b5 75 3d e4 e3 45 3c
       0.021097843 -0.010389301 0.05998745 0.012078259
000240 ba b1 09 bd e9 8e 8e 3d 9e 87 70 3b 96 28 58 bc
       -0.03361676 0.06960852 0.0036701928 -0.01319327
000250 67 a1 72 3d 04 31 c9 bc b6 da b9 3c ec f9 66 3c
       0.059235957 -0.024559505 0.022687297 0.014097672
000260 05 6c 5d bc 5e 2a 6e bd 54 db 20 3d e7 65 15 bd
       -0.013514523 -0.058145873 0.039271668 -0.036474135
000270 27 5e 37 bc 7b 0f a3 3b 76 8e 0e bd e2 bc 8a 3c
       -0.011191881 0.0049762107 -0.03480383 0.01693577
000280 ac 16 08 bd 60 4c 89 3d 5d a6 fd bc 9f 1b 8d bb
       -0.033224747 0.067040205 -0.030963117 -0.004306271
000290 ae 5d 93 bc f7 f3 82 3d 07 e9 6e 3d 94 0e ff 3c
       -0.017989006 0.06394189 0.0583277 0.031134881
0002a0 29 e7 91 bc 51 bc 7d 3c 7a df 27 3c 1d cc 9e 3c
       -0.017810421 0.015486793 0.010246152 0.019384438
0002b0 0b e2 01 3c 2b d1 00 3c 81 b2 ab bc bd 49 72 bc
       0.007927428 0.0078623695 -0.02095914 -0.014788088
0002c0 da 74 55 3d 0b eb 48 bc 9f 0f a1 bc 2c c8 75 bd
       0.05211339 -0.01226307 -0.019660769 -0.060005352
0002d0 2f ec 01 3d fc 9d 52 bd 00 f2 42 3c 28 b2 66 3d
       0.031719383 -0.051420197 0.011898518 0.056322247
0002e0 89 f4 07 3d e1 db b6 bc 51 3e ee 3b c6 ed f2 3c
       0.03319219 -0.022321643 0.0072706123 0.029654395
0002f0 54 a0 1e ba 9d 97 63 bd 61 00 f6 bc cb 8b 1c bc
       -0.00060511124 -0.05556451 -0.030029478 -0.009554814
000300 2e 51 4f 3d 74 ef a2 bc 89 0c f6 bc 3a 40 8c ba
       0.05061453 -0.01988957 -0.030035274 -0.0010700293
000310 51 51 29 3c 40 ed d4 3c 70 73 2c 3d 55 10 68 bc
       0.010334329 0.025992036 0.042102277 -0.01416405
000320 1d 55 12 bd d2 f9 6e 3c cb 7f 81 3d 9b a8 e4 bc
       -0.0357257 0.014585929 0.06323203 -0.027912429
000330 a8 8e 94 3a 22 8f 12 bd 47 70 5c 3d c6 49 56 3b
       0.0011334019 -0.035781033 0.053818014 0.003269778
000340 76 30 ac 3c a7 da b9 3b ac c4 ad bc 45 7f a7 bd
       0.021019202 0.0056718173 -0.021211945 -0.081785716
000350 95 ea 95 3c 80 07 82 bc e9 83 66 3d 0f a4 2e bd
       0.018300334 -0.015872717 0.056278143 -0.042636927
000360 9c d5 24 bc 37 5d 2e 3d b6 d4 f3 3c ba a3 03 3c
       -0.010060694 0.042569365 0.029764514 0.008034641
000370 8b b9 09 bc 1e c4 92 bc 20 54 84 3c 85 8b 2f bb
       -0.008406053 -0.017915782 0.016153395 -0.002678604
000380 d8 40 b1 3d 84 8a 88 ba 1d ee 5c bd 86 34 eb ba
       0.08654946 -0.0010417257 -0.05393802 -0.001794473
000390 5d 02 31 3d 2c b2 49 bd 98 e9 4b bd 72 94 10 3b
       0.043215144 -0.049242184 -0.04978332 0.0022061137
0003a0 b4 68 55 3d de b5 b9 3b 7f d3 0c 3d 71 8f 8d bd
       0.052101806 0.005667432 0.034381386 -0.06912125
0003b0 4d 7c c4 3c db b2 ce bd 44 4b 57 bc e7 2d 89 3d
       0.023985052 -0.10092708 -0.013140503 0.06698208
0003c0 de 5f 75 3b 76 50 f6 3a 8f 13 26 bc 29 68 7e 3c
       0.0037441174 0.001879229 -0.010136499 0.015527763
0003d0 33 39 96 bd 59 a3 59 bd 96 71 22 3d 90 6a 27 3d
       -0.07335129 -0.053134296 0.039659105 0.04087311
0003e0 28 ac 00 bd 44 16 1a bc 57 8c 2f bc 49 ea eb 3c
       -0.03141418 -0.009404723 -0.010714612 0.02879824
0003f0 5f 69 9a bc 6e 3f ec 3c 42 48 49 bd fe b1 d9 bd
       -0.018849073 0.02883884 -0.049141176 -0.106296524
