checkpoints/probe.pt (torch, 202066 bytes, 9 tensors)

layer_pool.scorer.weight f4 [1, 4096]
0.010881521 0.009605072 -0.0026628524 0.01734775 -0.00508742 0.0055888356 0.007485141 -0.0024036055
0.014979913 -0.008894815 0.005918605 -0.0071721696 0.008716746 0.014959306 -0.0012375625 0.0075604822
0.005336354 -0.012047314 -0.0129580395 -0.01282991 -0.020089699 -0.008319779 -0.017395213 0.013491164
-0.014510175 -0.0074703735 -0.017238947 -0.0021001184 0.003122678 -0.0066245813 0.020159392 -0.007966115
0.0019510393 0.00083692226 -0.002935755 0.00846801 0.001865871 0.011019045 0.005943888 -0.0006109894
0.0048435046 0.00526839 0.009909018 0.010882807 -0.034095347 -0.006885925 0.013730279 0.009512762
0.012646384 -0.008801457 -0.014072457 -0.013341207 -0.014877221 -0.0032761823 0.0009661745 0.00091162295
0.014411787 -0.0015530981 0.024822535 -0.0087662665 -0.0055083567 -0.013241676 0.014221976 -0.013066475
0.01441896 0.008016754 0.007313921 -0.016300013 -0.007020198 -0.0043989 0.013200004 0.023891885
0.02207075 -0.0060774754 -0.01345988 -0.010452851 -0.014714056 0.005700033 0.013162074 0.019017048
-0.00495358 -0.0062536183 -0.0019996413 -0.0042037144 0.005029597 -0.0063463817 0.014679392 -0.0068358635
-0.011811787 0.0008690621 -0.0038047363 0.0056004343 0.010059269 0.013440023 -0.009033834 -0.0060044723
0.013371391 -0.010610332 -0.0019781026 -0.0016109655 -0.015047199 -0.0029521142 -0.0066696494 -0.010082041
-0.0039472072 -0.0131049715 -0.007938075 -0.0057970975 -0.0123511925 -0.012440818 0.023191394 -0.01587151
0.006646604 -0.020254213 -0.01162204 0.0016837154 -0.0051210006 -0.018130882 -0.0058333576 -0.03489707
-0.005314365 -0.013294113 -0.0018088428 -0.012080421 -0.00996762 -0.0052989186 0.0022739382 -0.009448464
0.0080413455 -0.0032698533 0.0028570762 0.0022936948 -0.0059370077 0.012632029 0.0015430199 -0.013924949
-0.019464836 -0.012133218 -0.0023235767 -0.0042276485 0.006201168 -0.018902807 0.014969863 -0.014046609
0.0052092564 -0.0071657114 0.0088748 0.0012641246 0.008353464 -0.0121379215 0.006014167 -0.010336183
-0.010350818 -0.0008371248 0.0056389063 0.033802263 0.010177294 0.015776422 0.006461638 -0.00704707
0.01997381 0.0040299767 0.0076089017 -0.012981174 0.015425011 -0.0077371937 -0.0050462857 0.006739044
0.002807403 -0.005708341 -0.004731005 0.0018580316 0.01496249 0.0032724568 -0.004175654 -0.0025303848
-0.003443011 0.0012861902 0.014774721 -0.019513048 -0.0014391694 0.0037968678 -0.013031901 -0.0067473277
0.0037845415 0.017310776 0.006379109 -0.0003229644 -0.025302384 0.004025064 0.0013174255 -0.003721476
0.016024679 0.008540527 -0.0089984145 -0.0015191778 -0.0050026365 -0.009619186 0.003922602 -0.001568568
-0.018998533 -0.015554454 0.02003521 0.011859621 -0.0050144433 -0.013034623 -0.016924668 -0.018496644
-0.0018733134 0.0015901453 0.005137097 0.0097484635 -0.01777205 0.013916682 -0.017863689 0.01316384
-0.004330034 -0.0059875795 0.0016961829 -0.0062295743 -0.00569368 -1.407389e-07 -0.0064837304 -0.008332606
-0.0072408463 0.018879354 0.017414317 0.0057281544 -0.015815929 -0.01860434 -0.0063078394 0.0122623965
-0.007255584 0.0093864 0.007839127 0.00064884854 -0.0018265543 -0.015739894 -0.025863627 -0.009597123
0.006438982 -0.009579866 -0.0039816885 0.0017069221 0.0031960956 -0.0039214995 -0.009477958 0.0023442265
-0.014456166 0.01050644 -0.0056812013 -0.0060075345 -0.0065216026 -0.015940012 0.011143194 -0.021489708
00000000: 6848 323c 985e 1d3c 4083 2ebb de1c 8e3c
00000010: 5fb4 a6bb 8d22 b73b ea45 f53b cf85 1dbb
00000020: 4f6e 753c 8fbb 11bc dbf0 c13b 8504 ebbb
00000030: afd0 0e3c e117 753c b535 a2ba ecbd f73b
00000040: 95dc ae3b 1962 45bc f54d 54bc 8b34 52bc
00000050: 2793 a4bc af4f 08bc 6880 8ebc 0b0a 5d3c
00000060: 16bc 6dbc 09ca f4bb b138 8dbc 24a2 09bb
00000070: d8a5 4c3b 0413 d9bb 4f25 a53c 4f84 02bc
00000080: 04ba ff3a e764 5b3a cc65 40bb 69bd 0a3c
00000090: 3e90 f43a 3989 343c f2c4 c23b ce2a 20ba
000000a0: 43b6 9e3b 75a2 ac3b 6f59 223c cd4d 323c
000000b0: 90a7 0bbd 53a3 e1bb f7f4 603c 6adb 1b3c
000000c0: c732 4f3c fc33 10bc 2a90 66bc 1495 5abc
000000d0: 96bf 73bc 38b5 56bb e046 7d3a fbf9 6e3a
000000e0: 6a1f 6c3c 5391 cbba a158 cb3c 63a0 0fbc
000000f0: 727f b4bb 9df3 58bc 4a03 693c c514 56bc
00000100: 803d 6c3c b458 033c 9ea9 ef3b 9b87 85bc
00000110: b009 e6bb a624 90bb d444 583c eab8 c33c
00000120: b8cd b43c 8f25 c7bb d486 5cbc 6f42 2bbc
00000130: 3913 71bc 58c7 ba3b bda5 573c a4c9 9b3c
00000140: a451 a2bb 27eb ccbb 6a0c 03bb 50bf 89bb
00000150: 51cf a43b 4ff5 cfbb d581 703c 61ff dfbb
00000160: 3a86 41bc c5d1 633a e258 79bb d983 b73b
00000170: a2cf 243c 8b33 5c3c a502 14bc 2ac1 c4bb
00000180: ae13 5b3c f5d6 2dbc 0ea3 01bb 0827 d3ba
00000190: 8788 76bc 4278 41bb 138d dabb 252f 25bc
000001a0: 9357 81bb 3cb6 56bc b30e 02bc 94f5 bdbb
000001b0: a85c 4abc 93d4 4bbc e1fb bd3c f804 82bc
000001c0: c1cb d93b 2aec a5bc 5e6a 3ebc 1db0 dc3a
000001d0: 11ce a7bb 3787 94bc c025 bfbb 3bf0 0ebd
000001e0: 2024 aebb 8dcf 59bc b116 edba f5ec 45bc
000001f0: 3a4f 23bc 8da2 adbb 5a06 153b bbcd 1abc
00000200: d9bf 033c 094b 56bb c93d 3b3b d051 163b
00000210: 3b8b c2bb 92f6 4e3c 283f ca3a 7825 64bc
00000220: b874 9fbc 68ca 46bc 2647 18bb 1688 8abb
00000230: 2b33 cb3b 0fda 9abc 2844 753c c023 66bc
00000240: 69b2 aa3b 58ce eabb 9c67 113c fcb0 a53a
00000250: f8dc 083c 22de 46bc 7d12 c53b 1859 29bc
00000260: 7a96 29bc 7f72 5bba 93c6 b83b 3e74 0a3d
00000270: aabe 263c 8e3d 813c 26bc d33b 1ceb e6bb
00000280: 1ea0 a33c e50d 843b 1854 f93b fdae 54bc
00000290: 2fb9 7c3c 4988 fdbb 505b a5bb 33d3 dc3b
000002a0: 68fc 373b 090d bbbb 8c06 9bbb 3289 f33a
000002b0: 3b25 753c b776 563b edd3 88bb d0d4 25bb
000002c0: 24a4 61bb 6295 a83a ac11 723c d4d9 9fbc
000002d0: 83a2 bcba dfd4 783b c183 55bc b018 ddbb
000002e0: 1206 783b 54cf 8d3c d807 d13b 8c53 a9b9
000002f0: f246 cfbc afe4 833b 77ad ac3a 02e4 73bb
00000300: 3046 833c 91ed 0b3c 166e 13bc 261f c7ba
00000310: 28ed a3bb ca99 1dbc 2c89 803b 6998 cdba
00000320: d0a2 9bbc 1cd8 7ebc e120 a43c db4e 423c
00000330: 3350 a4bb 2c8f 55bc 9aa5 8abc 4686 97bc
00000340: f889 f5ba 6c6c d03a 1855 a83b 05b8 1f3c
00000350: b196 91bc cc02 643c df56 92bc 26ad 573c
00000360: f5e2 8dbb 7533 c4bb 7452 de3a 7521 ccbb
00000370: 0d92 babb 041e 17b4 7975 d4bb 7c85 08bc
00000380: 9f44 edbb e0a8 9a3c 78a8 8e3c 3eb3 bb3b
00000390: 6890 81bc 2168 98bc feb1 cebb 38e8 483c
000003a0: 40c0 edbb 6ac9 193c af6f 003c 7d17 2a3a
000003b0: fe68 efba f3f0 80bc f5df d3bc 403d 1dbc
000003c0: 19fe d23b dff4 1cbc d378 82bb cdba df3a
000003d0: 9675 513b ec7f 80bb 7049 1bbc 98a1 193b
000003e0: 8ed9 6cbc 3423 2c3c 5f29 babb dada c4bb
000003f0: 2bb3 d5bb a194 82bc f191 363c 2f0b b0bc

clf.weight f4 [3, 4096]
-0.048574354 0.0011247202 -0.012604936 0.014022622 -0.012964301 0.031350203 0.009635339 0.0035169614
0.0051231436 -0.019827353 -0.011519911 0.006824785 -0.0073145824 0.0075166384 0.018856315 -0.0069168583
0.01476197 0.01715079 0.021808121 0.001776564 0.011640168 0.006698732 0.0071242 0.025254633
0.0071792784 -0.02942852 -0.006595043 -0.0007856163 -0.0129294 0.023578664 -0.0073389937 -0.03130996
0.013945013 -0.008199411 -0.022132032 0.0018206107 -0.0014203371 -0.00629336 0.000551992 0.013283122
-0.025576001 -0.011573492 0.02700889 -0.042032026 0.012266383 -0.011908809 0.0047266902 -0.0015841724
0.012535236 -0.030685706 0.00255694 0.020193567 -0.006410198 0.013408578 0.0070325094 0.030328857
-0.015282045 -0.026282458 -0.023660362 -0.007526539 0.017906213 0.025578374 0.023380859 -0.016486436
-0.002400381 0.011386367 0.028470626 -0.0118215 0.016797807 0.022878043 0.00947965 -0.018474184
0.011295242 -0.015882181 -0.0017938296 -0.002274372 -0.010262213 -0.018931868 -0.017580966 0.0074458495
-0.012060555 0.0048418464 -0.023213742 0.009824449 0.034383584 0.019987883 -0.010129639 -0.0011095256
0.011855387 0.01874096 0.013262308 -0.034850955 0.0049833436 -0.004171215 0.039551806 0.031862017
0.040501192 0.007035623 -0.0019556424 0.0021862425 -0.011771845 0.015308852 -0.030715657 0.008186654
0.028657615 -0.017242985 -0.017638383 -0.01394156 -0.027629418 0.024366427 -0.013140649 0.0052947677
-0.001975796 -0.0058872225 -0.027872285 -0.01251792 -0.01432934 -0.002627053 0.012425972 0.004214202
0.0071323235 -0.018478563 0.006273667 -0.019015227 -0.04733677 -0.02386913 -0.0044962517 -0.00811293
0.0031250576 -0.011077402 0.035022832 -0.027497621 -0.010954148 -0.034137454 0.024132306 -0.007910803
0.0092121335 0.013580827 0.022114806 0.008044583 0.018559173 -0.012321955 -0.0030962527 0.013181711
0.0067222845 -0.02356505 -0.0327905 0.029813787 0.025585772 -0.033506673 0.023840856 -0.0117489975
0.039708186 0.028201932 -0.0048027267 0.011530375 -0.032090425 -0.008089437 0.027100163 0.005503486
0.007871047 0.022469595 0.007903249 0.004738543 -0.01032302 0.011421122 0.0025790562 -0.0049164793
0.0036067544 0.0037417815 -0.015777603 0.010159894 -0.0017223302 0.007597816 -0.036031302 -0.044086315
-0.024205597 -0.021176744 -0.010984726 -0.022148293 0.02513389 0.006856463 0.0036446645 -0.021759659
-0.020280322 0.017067008 0.020252392 -0.033278927 0.0013243423 -0.012747146 0.004882363 0.04444789
-0.01835221 -0.016272169 0.013372763 0.002060165 -0.030921208 0.009841601 -0.010629544 -0.025422893
0.019664858 0.017060585 -0.00978078 -0.0035218543 0.04717319 0.0106911855 0.0066318884 0.008608903
-0.007074506 0.0005360603 -0.010612036 -0.0033282328 0.009202085 -0.04404177 -0.04876664 0.003348027
0.018305052 0.012381968 -0.0050386284 -0.029984955 0.0066708378 0.031475175 -0.0023443066 -0.025991524
0.018981818 0.0094623845 -0.008921792 -0.0025591294 -0.006985193 0.002423665 0.03480213 0.018324794
0.023167204 -0.0014822828 -0.00041791963 -0.052495975 -0.024881095 -0.00086606736 -0.030763878 -0.010731514
-0.007167009 0.001174139 -0.017962439 -0.0048505906 0.026496118 0.007105456 0.011471277 0.004627658
-0.0040228516 0.039756294 -0.015254659 -0.015272173 -0.07558149 0.015420543 -0.057707407 0.028466906
00000000: e7f5 46bd 596b 933a ef84 4ebc 24bf 653c
00000010: 3868 54bc 1269 003d 8add 1d3c d27c 663b
00000020: 0be0 a73b f96c a2bc 02be 3cbc 72a2 df3b
00000030: 2aaf efbb 224e f63b 8f78 9a3c d0a6 e2bb
00000040: 31dc 713c d07f 8c3c f2a6 b23c 99db e83a
00000050: 67b6 3e3c 0981 db3b 1f72 e93b cee2 ce3c
00000060: 2740 eb3b 1414 f1bc 3b1b d8bb d1f1 4dba
00000070: d6d5 53bc 0b28 c13c f17b f0bb df3e 00bd
00000080: a079 643c d356 06bc 3c4e b5bc 8fa1 ee3a
00000090: 9b2a baba 8838 cebb 8eb3 103a 74a1 593c
000000a0: c384 d1bc be9e 3dbc bf41 dd3c c629 2cbd
000000b0: f0f8 483c 2a1d 43bc 5ae2 9a3b 01a4 cfba
000000c0: 9760 4d3c 9760 fbbc 5692 273b fb6c a53c
000000d0: a30c d2bb a7af 5b3c f770 e63b 3974 f83c
000000e0: 8b61 7abc 4f4e d7bc 60d3 c1bc 2fa1 f6bb
000000f0: 0db0 923c bd89 d13c 3789 bf3c 900e 87bc
00000100: b64f 1dbb e28d 3a3c 3b3b e93c f7ae 41bc
00000110: 8e9b 893c bc6a bb3c 8950 1b3c 2c57 97bc
00000120: ae0f 393c 591b 82bc ef1e ebba a10d 15bb
00000130: d722 28bc 0117 9bbc f505 90bc 50fc f33b
00000140: a299 45bc 5aa8 9e3b bf2a bebc baf6 203c
00000150: cdd5 0c3d a1bd a33c c9f6 25bc 806d 91ba
00000160: 193d 423c a486 993c 274a 593c e0bf 0ebd
00000170: 514b a33b b0ae 88bb 1301 223d bf81 023d
00000180: 94e4 253d 158b e63b 3c2a 00bb 1047 0f3b
00000190: b2de 40bc fbd1 7a3c 679f fbbc 5121 063c
000001a0: 60c3 ea3c 2941 8dbc 5f7e 90bc 246b 64bc
000001b0: 1757 e2bc 1a9c c73c e04b 57bc bb7f ad3b
000001c0: 5b7c 01bb 9ae9 c0bb 6b54 e4bc f617 4dbc
000001d0: 9cc5 6abc a32a 2cbb 4e96 4b3c 4a17 8a3b
000001e0: 44b6 e93b 5b60 97bc 5593 cd3b d2c5 9bbc
000001f0: 33e4 41bd 3289 c3bc 4b55 93bb 18ec 04bc
00000200: c4cd 4c3b fe7d 35bc 1a74 0f3d b142 e1bc
00000210: 0779 33bc b7d3 0bbd 1db1 c53c 509c 01bc
00000220: 7dee 163c 1e82 5e3c 1c2a b53c 6dcd 033c
00000230: 6809 983c 06e2 49bc 80ea 4abb 1af8 573c
00000240: 9c46 dc3b 7e0b c1bc 554f 06bd 0b3c f43c
00000250: 4199 d13c 4b3e 09bd e64d c33c de7e 40bc
00000260: 0da5 223d bd07 e73c 3160 9dbb e6e9 3c3c
00000270: 4071 03bd 8f89 04bc 2901 de3c 9656 b43b
00000280: 90f5 003c 2812 b83c a17c 013c c845 9b3b
00000290: e221 29bc a81f 3b3c 6205 293b 6b1a a1bb
000002a0: 4c5f 6c3b ad38 753b 0840 81bc af75 263c
000002b0: d0bf e1ba 1af7 f83b 8f95 13bd da93 34bd
000002c0: d14a c6bc da7a adbc 48f9 33bc 5670 b5bc
000002d0: 96e5 cd3c 2eac e03b 53db 6e3b 5041 b2bc
000002e0: eb22 a6bc 1cd0 8b3c 58e8 a53c 7c4f 08bd
000002f0: 8e95 ad3a 68d9 50bc 3bfc 9f3b fe0e 363d
00000300: 6057 96bc 364d 85bc 6f19 5b3c d503 073b
00000310: 794e fdbc ab3e 213c 8a27 2ebc ac43 d0bc
00000320: 3218 a13c a4c2 8b3c 913f 20bc e9ce 66bb
00000330: ad38 413d 152a 2f3c 5050 d93b 5b0c 0d3c
00000340: 42d1 e7bb 6686 0c3a 1bde 2dbc 7b1e 5abb
00000350: 58c4 163c 2565 34bd 87bf 47bd 926a 5b3b
00000360: 7af4 953c bddd 4a3c 141b a5bb 02a3 f5bc
00000370: 0b97 da3b 1dec 003d f0a2 19bb 2dec d4bc
00000380: c27f 9b3c 1e08 1b3c b52c 12bc 11b7 27bb
00000390: 0ce4 e4bb 5ad6 1e3b ae8c 0e3d e11d 963c
000003a0: 26c9 bd3c 2849 c2ba 391c dbb9 0506 57bd
000003b0: 70d3 cbbc cc08 63ba 8704 fcbc 3bd3 2fbc
000003c0: 3bd9 eabb 91e5 993a f725 93bc b4f1 9ebb
000003d0: 630e d93c e3d4 e83b 06f2 3b3c 9ca3 973b
000003e0: 20d2 83bb 7fd7 223d adee 79bc 2338 7abc
000003f0: 78ca 9abd 72a6 7c3c 9a5e 6cbd 6e33 e93c

clf.bias f4 [3]
-0.017736875 0.009828168 0.007415078
00000000: ec4c 91bc 5306 213c 2ffa f23b

exp_avg f4 [1, 4096]
0.0058537377 0.00038440342 -0.009484833 0.0017023279 -0.0027060313 0.009731875 -0.013670373 -0.0040940866
0.005649112 -0.00087227806 0.007962507 0.02066441 -0.0061173365 -0.0045282315 -0.0013870451 -5.2902044e-05
0.009358687 0.006950077 -0.0053571486 0.010248673 -0.0039142645 0.010325502 0.0055813827 -0.0043186983
0.013621453 -0.0030932145 0.01202056 0.00842258 -0.0044813245 0.0031135615 -0.012469528 -0.018245714
0.015293489 0.007268965 -0.0054380596 0.015980847 -0.0037504374 0.00055038306 0.00017699949 -0.0041744993
0.0029148478 -0.0032560804 0.0035829477 0.0064374325 0.0024588713 -0.0039340733 -0.003840299 0.012867424
0.00082564057 0.0031882015 -0.014815673 0.0001984955 -0.006946531 -0.05524517 -0.002478189 -5.8349426e-05
0.02226028 -0.01013396 0.003511596 -0.0079556815 0.003234439 0.01212868 -0.01028917 -0.0019651824
-0.010734009 -0.009975001 -0.008357536 -0.0013300803 -0.008361681 0.008058783 0.0078086085 -0.016499694
0.011770003 -0.0067989277 0.002454535 0.0008563135 0.0035568317 0.011228366 0.008015335 0.00026582167
0.011187892 0.0044578286 -2.8306356e-05 -0.0009541689 -0.010842066 -0.010795892 -0.0033518102 -0.004369711
0.0064437515 -0.002828306 -0.0024638078 0.004789182 -0.0014754126 -0.019368887 0.010424403 -7.894389e-05
0.015171898 0.007504389 0.014054961 0.00822679 0.004776628 -0.008503387 0.013711916 0.0050002956
-0.00073552225 -0.006691305 0.0011832911 0.00064533367 -0.002409157 -0.002948745 0.008046116 0.0091911815
-0.008908529 0.002066921 0.0025093777 0.005827798 0.0046873344 -0.007862926 -0.007685611 0.008843818
-0.020394541 -0.0010272193 -0.0019274271 -0.006242764 -0.0024837358 0.008451303 -0.0025621625 0.02280445
0.0073275683 0.009976545 0.0054251095 -0.008803065 0.0078112637 0.00028477027 -0.006749077 0.0003143873
-0.00031567758 0.004067789 0.019623624 0.0064207125 0.0056964913 0.0006955757 -0.016208315 0.005599125
0.001202102 -0.0028647694 7.414244e-05 0.0013369704 0.0072141667 -0.0014949798 0.010167372 0.00972738
0.013148028 0.0009423609 -0.0042685857 -0.014341714 -0.0011973877 0.00985737 -0.0070965346 0.002527797
-0.0033131149 0.0017967 -0.0005657758 -0.0055478183 -0.0064325137 -0.0036604896 -0.0009859459 -0.0064961254
-0.0070753875 0.0013012559 0.00942085 0.0074734953 3.7074347e-05 0.007621951 0.004267134 0.007925666
0.006888464 0.0016305427 0.0005685128 -0.00092240627 0.006197635 0.002882702 -0.0015299696 0.0005577341
-0.01790107 -0.0026751428 -0.0052694837 0.00837409 0.016692955 -0.0020574825 0.004148962 0.009372029
-0.009712386 0.0072762403 -0.008010451 0.022068487 0.021954568 0.004573152 -0.006388969 0.0032820832
0.011335888 0.011604008 0.0070637716 -0.0026994403 -0.017858164 0.009458299 0.0020105662 0.012083766
0.0096480055 0.004425462 -0.0011203123 0.003069583 0.006178008 -0.007453791 -0.0022479813 0.00043456047
0.0047851857 -0.0063543483 0.011952183 0.005935725 0.0029674105 0.009506066 0.0021734282 0.004724448
0.007928548 0.013641586 -0.0035131772 -0.0008023322 -0.0046634814 -0.0013642707 -0.010666995 0.004296508
0.003933498 0.0039145476 -1.07245205e-05 0.008405829 0.005794547 0.015178842 0.0061555207 -0.0060723033
0.013514755 -0.006949508 -0.0018149121 -0.0014987723 0.00745309 -0.014168547 0.0045836275 0.006170772
0.01124129 0.003718349 -0.00080795505 -0.0113077825 -0.0058409967 0.0007071117 0.004610724 0.00477246
00000000: b6d0 bf3b c189 c939 4666 1bbc a520 df3a
00000010: ac57 31bb 7172 1f3c b3f9 5fbc b027 86bb
00000020: 301c b93b 97a9 64ba 2d75 023c 6948 a93c
00000030: f073 c8bb 8f61 94bb 83cd b5ba 23e3 5db8
00000040: 2e55 193c 79bd e33b 058b afbb 0dea 273c
00000050: 3b43 80bb 4b2c 293c 08e4 b63b de83 8dbb
00000060: 842c 5f3c 87b7 4abb e2f1 443c dcfe 093c
00000070: 13d8 92bb e50c 4c3b fe4c 4cbc 0978 95bc
00000080: 8b91 7a3c 7f30 ee3b c031 b2bb 44ea 823c
00000090: e6c9 75bb 9547 103a f098 3939 3dca 88bb
000000a0: 0807 3f3b f763 55bb e3cf 6a3b 19f1 d23b
000000b0: 0425 213b 66e9 80bb 87ad 7bbb e3d1 523c
000000c0: cd6f 583a 25f1 503b 70bd 72bc 3b23 5039
000000d0: ba9f e3bb c248 62bd 1d69 22bb 38bc 74b8
000000e0: 315b b63c e908 26bc ce22 663b 8c58 02bc
000000f0: e2f8 533b 5fb7 463c e893 28bc 4aca 00bb
00000100: b2dd 2fbc 306e 23bc 0cee 08bc 1756 aeba
00000110: 6fff 08bc fc08 043c 5bdf ff3b 5e2a 87bc
00000120: f8d6 403c 8ac9 debb 44dc 203b 3a7a 603a
00000130: bc19 693b 2ef7 373c c052 033c fb5d 8b39
00000140: 6c4d 373c fa12 923b 7073 edb7 3121 7aba
00000150: eca2 31bc 41e1 30bc 0baa 5bbb cb2f 8fbb
00000160: 1b26 d33b 1a5b 39bb d677 21bb 92ee 9c3b
00000170: a262 c1ba 80ab 9ebc 1dcb 2a3c ae8e a5b8
00000180: 8d93 783c 61e7 f53b c746 663c a9c9 063c
00000190: 4385 9c3b ca51 0bbc f2a7 603c 85d9 a33b
000001a0: 10d0 40ba bc42 dbbb a918 9b3a 9c2b 293a
000001b0: f3e2 1dbb bb3f 41bb dbd3 033c 9c96 163c
000001c0: 14f5 11bc 2e75 073b 5f74 243b 1df7 be3b
000001d0: 3698 993b 81d3 00bc 94d7 fbbb a9e5 103c
000001e0: 7412 a7bc c3a3 86ba b9a1 fcba 1a90 ccbb
000001f0: 2cc6 22bb 5577 0a3c f4e9 27bb 66d0 ba3c
00000200: 191c f03b aa74 233c 1ec5 b13b bb3a 10bc
00000210: a1f5 ff3b 384d 9539 5c27 ddbb 59d4 a439
00000220: 8781 a5b9 164b 853b b9c1 a03c d764 d23b
00000230: a2a9 ba3b 4c57 363a 4dc7 84bc dd78 b73b
00000240: da8f 9d3a dbbe 3bbb eb7c 9b38 483d af3a
00000250: d164 ec3b 33f3 c3ba 0d95 263c 975f 1f3c
00000260: d46a 573c c508 773a 7edf 8bbb 82f9 6abc
00000270: aaf1 9cba ce80 213c 0c8a e8bb 65a9 253b
00000280: d820 59bb 3f7f eb3a 9250 14ba 79ca b5bb
00000290: d6c7 d2bb d3e4 6fbb db3a 81ba 73dd d4bb
000002a0: a7d8 e7bb e78e aa3a e959 1a3c 39e4 f43b
000002b0: 4780 1b38 8fc1 f93b 50d3 8b3b a7da 013c
000002c0: a0b8 e13b efb7 d53a 4008 153a a3cd 71ba
000002d0: 8815 cb3b b7eb 3c3b 4389 c8ba e734 123a
000002e0: 44a5 92bc 7351 2fbb a2ab acbb 7b33 093c
000002f0: aabf 883c d4d6 06bb 04f4 873b 248d 193c
00000300: b320 1fbc 876d ee3b 443e 03bc f9c8 b43c
00000310: 11da b33c 61da 953b 8e5a d1bb 3818 573b
00000320: 29ba 393c bd1e 3e3c 3677 e73b 18e9 30bb
00000330: 494b 92bc fbf6 1a3c b4c3 033b fdfa 453c
00000340: ab12 1e3c 7703 913b 71d7 92ba 0f2b 493b
00000350: e370 ca3b ee3e f4bb de52 13bb b8d5 e339
00000360: 0ccd 9c3b 2338 d0bb 17d3 433c 7880 c23b
00000370: e378 423b 55bf 1b3c 1370 0e3b 8bcf 9a3b
00000380: bee6 013c f580 5f3c 553d 66bb 9a53 52ba
00000390: 1ed0 98bb 54d1 b2ba 9fc4 2ebc b9c9 8c3b
000003a0: 93e4 803b 9b45 803b 77ed 33b7 9ab8 093c
000003b0: 2fe0 bd3b adb0 783c 40b4 c93b 2cfa c6bb
000003c0: fe6c 5d3c b3b8 e3bb 58e2 edba 7472 c4ba
000003d0: 0d39 f43b 3123 68bc 4132 963b 3034 ca3b
000003e0: 632d 383c 8baf 733b f2cc 53ba 4744 39bc
000003f0: d565 bfbb 775d 393a 8e15 973b 4c62 9c3b

exp_avg_sq f4 [1, 4096]
0.001892484 0.0044851084 0.0035517663 0.0035942714 0.002317372 0.0022297553 0.0018373755 0.0021603839
0.0060077724 0.0023392115 0.0036950752 0.002467427 0.0028162436 0.0024276343 0.0024588106 0.0028462294
0.0032078708 0.002989173 0.0039645643 0.009223197 0.0022420508 0.0016144534 0.0021915988 0.0035845006
0.0024339827 0.0029413928 0.0030395172 0.0033866442 0.0024440556 0.005379686 0.0017324915 0.003287251
0.0021497332 0.009247802 0.0024767283 0.0018253576 0.0018586452 0.0028509253 0.002884709 0.0016424871
0.008951787 0.0021783854 0.0046667824 0.0015925266 0.001539894 0.0010347209 0.0026288829 0.0035921629
0.0030576186 0.0029010843 0.003069341 0.0016687675 0.002784167 0.10878618 0.0016020671 0.0013375442
0.0022980333 0.002113627 0.0043900935 0.0062028263 0.0013786369 0.0024175898 0.0061383354 0.0027597267
0.00404035 0.0018691963 0.0014323235 0.0036676773 0.0025695057 0.0042846124 0.0025639527 0.002329264
0.0016161279 0.0017148467 0.0056946985 0.00526538 0.0041468535 0.0030966196 0.0013801618 0.0036283901
0.0031538364 0.0054314225 0.0029502707 0.002068122 0.003706932 0.006508692 0.003960641 0.0024197402
0.0044886507 0.0032687918 0.0032707264 0.0063376646 0.0031145385 0.036717895 0.0059451773 0.0030365223
0.0027858526 0.0036696945 0.0018285445 0.003918096 0.002041226 0.0041441377 0.002593507 0.0030742278
0.0069293682 0.0022315441 0.0012643292 0.0014299934 0.0038000452 0.0038256072 0.002139491 0.0014275691
0.0022811336 0.0044963164 0.0021695276 0.0061103576 0.0024096053 0.0032051138 0.0025733009 0.001421076
0.00550344 0.0016857224 0.0050739925 0.0016210864 0.00086673035 0.001818962 0.0052295406 0.004826569
0.0024796156 0.0026953565 0.0025312207 0.0025024437 0.0018003952 0.004281714 0.00346911 0.003300512
0.011405156 0.004217381 0.0019079641 0.0024931694 0.0017288553 0.0020689561 0.0023025433 0.0036662105
0.0035844534 0.0025865422 0.0013894936 0.0009969017 0.0026822044 0.0017382297 0.0016407619 0.002484166
0.0015407463 0.00214809 0.0016926338 0.0046591633 0.0014801768 0.0042526238 0.0025501377 0.0014811418
0.0008844119 0.006889718 0.002151971 0.0019628417 0.0029491205 0.001988687 0.0029384792 0.0032997916
0.0048532626 0.0040827845 0.0016305938 0.0024821751 0.0012555398 0.0029188972 0.0043498236 0.0023198228
0.0030659465 0.0015300298 0.0072073 0.0013723959 0.005531471 0.001786977 0.0022375544 0.0026228577
0.0047435993 0.008737904 0.0028228427 0.0007840737 0.013282882 0.002122829 0.0015488644 0.0024244336
0.0030581127 0.0013996727 0.0020476778 0.0068771266 0.0025156813 0.004659132 0.0020859297 0.0029581953
0.0036055269 0.0042338436 0.0038126386 0.0024545381 0.024556788 0.0025204076 0.0033543827 0.005084677
0.0009942602 0.001584577 0.001826152 0.0019781748 0.0026019283 0.0006808753 0.0020025163 0.0051555024
0.0072839055 0.0028251642 0.0039766827 0.0028998302 0.0018646878 0.00218743 0.0026079395 0.0034818903
0.0028243773 0.0032864704 0.0061686193 0.0019984844 0.0030514186 0.0028184347 0.0022873767 0.0042084674
0.00024145376 0.0023198416 0.004766489 0.0019488486 0.0022493908 0.0039760545 0.0027837162 0.0028263025
0.0069711967 0.0027099387 0.0016600826 0.0022671253 0.0015392998 0.0020991648 0.0023774193 0.0028237356
0.0035677296 0.0062290914 0.003542354 0.0041489583 0.0028246234 0.004207702 0.0016050718 0.004820487
00000000: 3a0d f83a d1f7 923b c0c4 683b de8d 6b3b
00000010: 0ddf 173b 1621 123b 17d4 f03a 3a95 0d3b
00000020: d9dc c43b 754d 193b 1329 723b 8eb4 213b
00000030: ba90 383b f218 1f3b ff23 213b ce87 3a3b
00000040: 243b 523b 00e6 433b 2de9 813b e41c 173c
00000050: 5fef 123b 119c d33a eda0 0f3b f1e9 6a3b
00000060: 7483 1f3b 62c4 403b a332 473b 76f2 5d3b
00000070: 732c 203b 1448 b03b c514 e33a ec6e 573b
00000080: 8ae2 0c3b 1884 173c 9b50 223b d640 ef3a
00000090: c99d f33a 97d6 3a3b 630d 3d3b b948 d73a
000000a0: 84aa 123c 3ec3 0e3b cfeb 983b 53bc d03a
000000b0: 45d6 c93a 799f 873a 5649 2c3b 7e6a 6b3b
000000c0: 5462 483b 1e20 3e3b ff26 493b 8cba da3a
000000d0: 9276 363b 4acb de3d 74fc d13a 8950 af3a
000000e0: 9a9a 163b c784 0a3b c6da 8f3b 1441 cb3b
000000f0: 61b3 b43a 6d70 1e3b 1724 c93b 88dc 343b
00000100: ea64 843b d2ff f43a cdbc bb3a 6a5d 703b
00000110: 2765 283b ef65 8c3b fd07 283b 91a6 183b
00000120: 41d4 d33a b5c4 e03a 989a ba3b 3589 ac3b
00000130: 54e2 873b a8f0 4a3b 8ce6 b43a 49ca 6d3b
00000140: 98b0 4e3b 13fa b13b 5459 413b 5489 073b
00000150: 00f0 723b de46 d53b 44c8 813b 8194 1e3b
00000160: 8815 933b 3a39 563b af59 563b 2fac cf3b
00000170: 491d 4c3b 8165 163d c3cf c23b 6400 473b
00000180: da92 363b 427f 703b c6ab ef3a 5f63 803b
00000190: 17c6 053b 8ccb 873b d4f7 293b fc78 493b
000001a0: c10f e33b 193f 123b d9b7 a53a 9e6e bb3a
000001b0: 2e0a 793b 0ab7 7a3b b436 0c3b 451d bb3a
000001c0: 127f 153b d655 933b a22e 0e3b 6539 c83b
000001d0: 78ea 1d3b e30c 523b d3a4 283b 6643 ba3a
000001e0: 3356 b43b 75f3 dc3a bc43 a63b a27a d43a
000001f0: 4a35 633a 3d6a ee3a 915c ab3b 3228 9e3b
00000200: 0c81 223b 94a4 303b d6e2 253b 0a00 243b
00000210: 3dfb eb3a 9f4d 8c3b 025a 633b 674d 583b
00000220: b1dc 3a3c f531 8a3b a714 fa3a 7164 233b
00000230: c29a e23a 5397 073b 44e6 163b ce44 703b
00000240: 26e9 6a3b fa82 293b ab1f b63a 78aa 823a
00000250: ecc7 2f3b 4fd5 e33a d50e d73a 64cd 223b
00000260: def2 c93a f8c6 0c3b 5edb dd3a e5ab 983b
00000270: 7e02 c23a 9859 8b3b 3620 273b df22 c23a
00000280: e1d7 673a 25c3 e13b 1508 0d3b 05a3 003b
00000290: 0846 413b a254 023b 8093 403b 5141 583b
000002a0: 1e08 9f3b e1c8 853b a6b9 d53a fdab 223b
000002b0: ed90 a43a f84a 3f3b f788 8e3b 2b08 183b
000002c0: 0cee 483b 488b c83a 372b ec3b f7e1 b33a
000002d0: 5841 b53b 0039 ea3a efa3 123b 40e4 2b3b
000002e0: 3270 9b3b 6d29 0f3c 71ff 383b 4c8a 4d3a
000002f0: 72a0 593c 291f 0b3b 4403 cb3a 3fe3 1e3b
00000300: 9e6a 483b 3975 b73a 5532 063b 8559 e13b
00000310: 21de 243b a2ab 983b 18b4 083b 48de 413b
00000320: b44a 6c3b 0ebc 8a3b 76dd 793b 51dc 203b
00000330: 512b c93c 6c2d 253b 34d5 5b3b 5d9d a63b
00000340: d651 823a 95b1 cf3a 7e5b ef3a 44a4 013b
00000350: 1d85 2a3b c57c 323a a63c 033b 7def a83b
00000360: d4ad ee3b 6426 393b d54e 823b 140b 3e3b
00000370: 8a68 f43a fc5a 0f3b f7e9 2a3b 6d30 643b
00000380: 3019 393b d361 573b 2122 ca3b 01f9 023b
00000390: 4ffa 473b 7db5 383b d0e7 153b 2fe7 893b
000003a0: c02e 7d39 7c08 183b 3530 9c3b 8270 ff3a
000003b0: 846a 133b 9049 823b 026f 363b 7d39 393b
000003c0: a36e e43b 3a99 313b 2197 d93a 0d94 143b
000003d0: 55c2 c93a 2492 093b 7ace 1b3b 6c0e 393b
000003e0: 92d0 693b 681d cc3b d726 683b fcf3 873b
000003f0: 511d 393b c3e0 893b 4661 d23a 2df5 9d3b

exp_avg f4 [3, 4096]
0.0034203834 0.002463431 0.0031089224 0.004303966 -5.809374e-05 0.0017839774 0.00064175803 0.0014226956
-0.0011054252 0.001609853 0.006529287 -0.002679325 0.0011041416 -0.00053266773 0.0011654114 -0.0029319061
-0.002045963 -0.00020871144 -0.001470748 -0.00011096982 -0.00017156328 -0.0012169463 -0.0029326237 0.0016851495
0.0009936753 0.0015762708 0.0025498911 -0.0022679886 -0.006632602 -0.0055154716 0.0028763744 0.0015982379
-0.0013262212 0.0022447456 0.00080652465 0.0009037633 -0.00046154478 0.0038006364 0.0015464516 0.0017590937
0.0024647205 -0.0027274992 -0.0020901228 0.008270095 0.00016063191 -0.0009675372 -0.0019985237 0.0022133235
0.0009417412 -0.00033466122 0.00027524028 0.0017041353 0.0006285494 0.007583216 -0.0013367533 -0.000602171
0.001532915 0.0022164215 0.0025515968 0.0076205474 0.0034149417 -8.140465e-05 -0.0026898773 -0.0010314434
0.002852061 0.0008427289 -7.946681e-05 -0.0014759544 -0.0015110358 -0.0024314201 0.003314409 -0.00017088723
-0.0021569172 0.003319826 0.0016550195 -0.0001236091 -0.0009931156 0.0014057615 -0.0019117715 -0.000113675604
-0.0014612327 -0.0023661777 -0.002855126 0.00091407157 -0.0007161568 0.0014833418 0.0013698076 -0.0019169318
-0.010517348 0.00056008284 -0.0010251022 0.0039270925 0.0008282402 -4.6465244e-05 -0.0058104107 -0.0016690289
-0.0028100612 -0.002246767 0.0025222728 -0.0014567777 -0.00082382216 -0.003230337 0.00057128025 0.0041559767
-0.0029921187 0.0010794118 0.010262816 -0.00066287897 -0.0048375963 0.0006138623 0.004988082 0.0008231026
-0.002050753 -0.0031977105 -0.0015683554 0.0007197526 -0.0005377744 0.0019191796 -0.0017843819 0.002392457
0.00029493668 -0.0016997614 -0.0012047421 -0.00049614033 -0.004706568 -0.0027406989 0.0070876903 0.0009743557
-0.0042966576 -0.001461318 -0.0026875644 0.0016946847 0.0006035951 -0.0026403952 0.0013621203 0.0031147185
0.0058500306 -0.0028968812 -0.002541884 0.003532596 -0.0004535643 0.0029265808 -0.010502317 -0.0024736885
-0.002587312 -0.0023383333 -0.0011752573 -0.0023590738 0.00048044047 0.0033941702 0.0005710324 0.00014639615
0.0012172731 -0.0016385806 0.0040650624 0.01578188 -0.005544283 0.0037899818 -0.0029504346 0.0008142099
0.0027226238 -0.0054948465 0.0020468894 0.00012677575 0.00079847575 -0.002759596 0.0034834011 0.0041228705
0.0012803965 0.0015121878 0.0023720805 0.00717289 -0.001895236 -0.0015196346 -0.0027197967 0.0024566606
-0.00018770444 -0.0027435336 0.002379912 -0.0008335565 0.004589085 -0.0010946403 0.001116771 0.0043006027
0.0039578206 0.00020352016 0.00012682992 -0.0039011803 -0.008033007 -0.0012848357 -0.0018614747 -0.00069424
-0.00208574 -0.0045154127 -0.0019490748 0.0014643377 0.0034609681 0.0011839638 0.0019725503 0.0021970419
-0.0038450712 -0.0002782439 -0.0038378378 0.001021101 -0.016092826 0.0011403953 -0.0011110961 0.0008534858
-0.0009848955 -0.0016823765 -0.0025193922 0.0014938377 0.0010080155 0.0006893756 0.0027458977 0.004187341
-0.002993728 0.0024415636 0.0017163259 0.004723141 0.0005645636 -0.0023183862 -0.0025433379 0.0019869101
0.00030659046 0.0021358493 -0.0014751726 -0.0012118495 0.00086313667 0.002743026 0.002273783 0.0033220304
0.0019206697 0.005299581 0.004444815 0.0014735903 0.0018777689 -0.0015986738 0.0011417683 0.0039423928
0.0022728676 0.0011342306 -0.0022685418 -6.1546334e-06 0.002265119 -0.0065161623 -4.4140237e-05 0.0010639753
-0.0011637014 -0.0062426566 -0.0037672953 0.00051219005 0.0055271755 0.0024500135 0.0018777641 0.00069952116
00000000: 8328 603b 8471 213b 10bf 4b3b 4908 8d3b
00000010: aea9 73b8 59d4 e93a a73b 283a be79 ba3a
00000020: eae3 90ba b401 d33a a1f3 d53b 9d97 2fbb
00000030: d8b8 903a baa2 0bba b8c0 983a 3925 40bb
00000040: 9015 06bb 8dd9 5ab9 1dc6 c0ba 78b8 e8b8
00000050: abe5 33b9 f181 9fba 4331 40bb 3ce0 dc3a
00000060: 363e 823a df9a ce3a 131c 273b 89a2 14bb
00000070: 4c56 d9bb 21bb b4bb 8e81 3c3b f77b d13a
00000080: 99d4 adba 951c 133b f46c 533a 87ea 6c3a
00000090: 7efb f1b9 1914 793b 4eb2 ca3a 6491 e63a
000000a0: 2687 213b d8bf 32bb 71fa 08bb 4b7f 073c
000000b0: 4d6f 2839 53a2 7dba aaf9 02bb 680d 113b
000000c0: 2fdf 763a 7875 afb9 204e 9039 4b5d df3a
000000d0: 3cc5 243a a07c f83b ff35 afba 03db 1dba
000000e0: 18ec c83a 6241 113b b138 273b c9b5 f93b
000000f0: 37cd 5f3b cab7 aab8 a748 30bb 7f31 87ba
00000100: a5e9 3a3b 94ea 5c3a 6ba7 a6b8 d074 c1ba
00000110: f30d c6ba 7658 1fbb 8e36 593b 3130 33b9
00000120: 115b 0dbb 7091 593b 3ded d83a 119d 01b9
00000130: 6e2b 82ba 8741 b83a 6894 faba 2065 eeb8
00000140: d586 bfba e011 1bbb 111d 3bbb 4e9e 6f3a
00000150: 78bc 3bba b16c c23a 1e8b b33a 8f41 fbba
00000160: f450 2cbc 86d2 123a b95c 86ba d7ae 803b
00000170: 421e 593a ade3 42b8 4265 bebb 51c3 daba
00000180: 0129 38bb 7f3e 13bb b74c 253b 59f1 beba
00000190: c5f5 57ba 10b4 53bb f8c1 153a dc2e 883b
000001a0: 6c17 44bb 0d7b 8d3a 5f25 283c 0ec5 2dba
000001b0: b384 9ebb 9aeb 203a 1173 a33b 7bc5 573a
000001c0: ed65 06bb ae90 51bb 4691 cdba c8ad 3c3a
000001d0: 6ef9 0cba fb8c fb3a ece1 e9ba c5ca 1c3b
000001e0: bba1 9a39 87ca deba 70e8 9dba 6a0f 02ba
000001f0: 8e39 9abb 4c9d 33bb db3f e83b e76b 7f3a
00000200: faca 8cbb b289 bfba d921 30bb 2f20 de3a
00000210: 953a 1e3a 7b0a 2dbb 2c89 b23a 4e20 4c3b
00000220: 9db1 bf3b 9ad9 3dbb bd95 26bb 2083 673b
00000230: 5fcc edb9 e1cb 3f3b e911 2cbc 9b1d 22bb
00000240: e48f 29bb b93e 19bb 170b 9aba b19a 1abb
00000250: a1e3 fb39 ba70 5e3b 56b1 153a eb81 1939
00000260: e88c 9f3a a4c5 d6ba 3734 853b 0049 813c
00000270: d1ac b5bb 5861 783b 145c 41bb b470 553a
00000280: 0c6e 323b 1d0e b4bb 1b25 063b 1bef 0439
00000290: cd50 513a 57da 34bb c649 643b 2519 873b
000002a0: fad2 a73a 9a34 c63a e874 1b3b 900a eb3b
000002b0: 9169 f8ba 7a2e c7ba 9e3e 32bb edff 203b
000002c0: 87d2 44b9 dbcc 33bb 4cf8 1b3b 0883 5aba
000002d0: 0960 963b 097a 8fba 9e60 923a 12ec 8c3b
000002e0: 9bb0 813b 0768 5539 a6fd 0439 f2aa 7fbb
000002f0: e09c 03bc ef67 a8ba bafc f3ba a8fd 35ba
00000300: e9b0 08bb 07f6 93bb 1978 ffba 05ef bf3a
00000310: 69d1 623b 3c2f 9b3a e745 013b 3ffc 0f3b
00000320: 97fd 7bbb 44e1 91b9 3c84 7bbb 77d6 853a
00000330: 1ad5 83bc 5179 953a 33a2 91ba 76bc 5f3a
00000340: 9c17 81ba 3083 dcba 631c 25bb e0cc c33a
00000350: 631f 843a 37b7 343a 85f4 333b f635 893b
00000360: 6c32 44bb a402 203b 57f6 e03a 94c4 9a3b
00000370: 39ff 133a 11f0 17bb 21ae 26bb d236 023b
00000380: e0bd a039 9bf9 0b3b 945a c1ba ecd6 9eba
00000390: 1f44 623a 57c4 333b c003 153b 6cb6 593b
000003a0: fbbe fb3a 1ca8 ad3b d0a5 913b 7c25 c13a
000003b0: 781f f63a 978a d1ba 63a7 953a 302f 813b
000003c0: 64f4 143b 77aa 943a d1ab 14bb e683 ceb6
000003d0: 6472 143b 8885 d5bb 3823 39b8 1675 8b3a
000003e0: 5787 98ba 338f ccbb bae4 76bb 7e44 063a
000003f0: 4f1d b53b 6890 203b 4f1f f63a 1260 373a

exp_avg_sq f4 [3, 4096]
3.1620297e-05 5.730893e-05 9.971163e-05 7.486024e-05 0.000105634324 6.843175e-05 6.4155356e-05 3.1853342e-05
0.00036009913 3.0294632e-05 0.0001233629 5.0580467e-05 6.683583e-05 5.03345e-05 0.00021991892 4.0322542e-05
4.3096814e-05 0.00038335525 2.9426517e-05 0.0012176236 0.00012165998 1.836554e-05 9.9380966e-05 0.0001349784
0.00010348527 0.00012029233 4.3351054e-05 9.382988e-05 8.571102e-05 7.167566e-05 3.442593e-05 0.00010652374
7.5482814e-05 0.00014772329 4.0774474e-05 6.822611e-05 2.6674736e-05 8.997218e-05 5.046427e-05 3.686959e-05
0.00039133147 8.309449e-05 6.606179e-05 0.00017445064 6.721582e-05 2.5217183e-05 2.9668074e-05 7.0020724e-05
2.3227656e-05 4.9469203e-05 3.4748293e-05 5.863397e-05 6.554211e-05 0.0034476086 3.6692112e-05 3.6699323e-05
5.7248217e-05 3.4229357e-05 4.7523394e-05 0.00028726502 6.494824e-05 5.1187275e-05 4.668133e-05 3.111087e-05
9.456547e-05 3.491882e-05 4.1700583e-05 7.949085e-05 3.986311e-05 5.298142e-05 7.430419e-05 5.578433e-05
4.9848517e-05 9.589163e-05 0.00029764877 4.0797913e-05 0.000119859025 7.513863e-05 0.0002363714 4.311794e-05
0.000117354764 8.271006e-05 2.9285075e-05 8.0356825e-05 3.9528208e-05 0.0003932679 5.8553174e-05 2.6930644e-05
7.490127e-05 6.7166606e-05 0.00013465746 0.00023342353 2.9024946e-05 0.00030600667 0.0003274012 6.827158e-05
0.00010492085 6.0252205e-05 3.1778833e-05 3.8793674e-05 0.0001232183 7.591663e-05 4.3415403e-05 7.5841235e-05
0.00034914174 4.5042027e-05 0.0001325878 4.309263e-05 4.3331787e-05 7.874883e-05 9.4525094e-05 3.3282944e-05
0.000101659134 0.00016952695 3.9643535e-05 0.00030127235 4.3589687e-05 3.3783574e-05 9.0587506e-05 4.2789034e-05
0.00023343762 2.2591365e-05 0.00017510596 2.0418896e-05 0.00013268038 8.6601365e-05 0.00010975642 6.283255e-05
6.372122e-05 6.91006e-05 4.402856e-05 2.939354e-05 6.709707e-05 4.434775e-05 0.00011250218 8.1416125e-05
0.0001293804 6.394222e-05 3.634306e-05 2.7697448e-05 3.6771427e-05 3.6189544e-05 0.0002052807 7.36303e-05
0.00010890905 0.000108836095 7.687126e-05 5.8348593e-05 6.769488e-05 3.8185484e-05 8.0937614e-05 3.1698582e-05
4.0783187e-05 4.121555e-05 4.4865643e-05 0.0028613461 0.00010184703 3.364378e-05 0.00016152786 2.5875239e-05
4.713268e-05 0.00018032269 8.805101e-05 5.3755317e-05 0.00010325993 6.686246e-05 9.920516e-05 7.919895e-05
4.7740043e-05 0.00015672234 9.0790534e-05 7.9755315e-05 0.00011660161 8.925568e-05 9.15311e-05 9.688762e-05
5.783475e-05 0.0001620164 0.00035538158 9.693638e-05 0.00010947679 4.270877e-05 5.2677704e-05 5.608949e-05
0.00018665951 5.3458727e-05 6.882999e-05 8.572484e-05 0.0034635721 5.1297204e-05 4.927126e-05 2.2411441e-05
3.6549856e-05 5.3426564e-05 4.633339e-05 0.00023517651 9.862809e-05 0.00016936152 3.7802693e-05 6.343605e-05
5.1739862e-05 5.448266e-05 0.0001164123 7.427906e-05 0.0006383978 0.00010086612 0.00012391979 0.00019723074
4.232548e-05 5.9397786e-05 4.6968606e-05 5.3973446e-05 0.00010057122 0.00018301296 0.00019475653 9.9289995e-05
0.00011010311 6.397335e-05 0.00013232138 0.00013696191 8.5477375e-05 0.00013397397 7.167487e-05 4.9840968e-05
6.71163e-05 8.4524e-05 0.0001750762 6.11552e-05 4.7010766e-05 9.900859e-05 5.494998e-05 8.154424e-05
0.00024405647 7.5749565e-05 0.00018282406 3.5633246e-05 3.840194e-05 0.000102192855 6.273089e-05 3.6512294e-05
0.00020493113 5.773156e-05 3.1514974e-05 6.285843e-05 4.347502e-05 6.261091e-05 7.796259e-05 3.9348008e-05
0.00014207255 0.0002915361 3.880122e-05 2.4870864e-05 4.840999e-05 3.1503543e-05 4.200056e-05 0.00019295394
00000000: 09a0 0438 ff5e 7038 461c d138 49fe 9c38
00000010: ff87 dd38 0483 8f38 258b 8638 449a 0538
00000020: b0cb bc39 3a21 fe37 fa5a 0139 5d26 5438
00000030: 372a 8c38 421e 5338 099a 6639 0020 2938
00000040: dac2 3438 12fd c839 f7d8 f637 ab98 9f3a
00000050: b423 ff38 b20f 9a37 c06a d038 fd88 0d39
00000060: 3b06 d938 7445 fc38 d7d3 3538 89c6 c438
00000070: c1bf b338 9450 9638 9064 1038 7f65 df38
00000080: 874c 9e38 2be6 1a39 4205 2b38 9d14 8f38
00000090: 8fc3 df37 72af bc38 99a9 5338 6ca4 1a38
000000a0: 9f2b cd39 0443 ae38 a78a 8a38 bdec 3639
000000b0: 38f6 8c38 7d89 d337 b4df f837 17d8 9238
000000c0: 03d9 c237 277d 4f38 b2be 1138 bfed 7538
000000d0: a773 8938 46f1 613b dbe5 1938 99ed 1938
000000e0: ce1d 7038 7e91 0f38 db53 4738 0f9c 9639
000000f0: d234 8838 ebb1 5638 b2cb 4338 0b7d 0238
00000100: 7351 c638 cc75 1238 a9e7 2e38 53b4 a638
00000110: b032 2738 5e38 5e38 c2d3 9b38 f8f9 6938
00000120: 7014 5138 6d19 c938 be0d 9c39 6d1e 2b38
00000130: d35c fb38 bf93 9d38 77da 7739 89d9 3438
00000140: 5c1c f638 a074 ad38 38a9 f537 3e85 a838
00000150: 17cb 2538 862f ce39 fe96 7538 1ee9 e137
00000160: 5014 9d38 ccdb 8c38 d632 0d39 27c3 7439
00000170: 997a f337 856f a039 0ca7 ab39 072d 8f38
00000180: f408 dc38 50b7 7c38 434a 0538 64b6 2238
00000190: 2934 0139 6e35 9f38 ef18 3638 f40c 9f38
000001a0: 030d b739 82eb 3c38 4407 0b39 5cbe 3438
000001b0: 27bf 3538 f525 a538 c63b c638 4a99 0b38
000001c0: d531 d538 0bc3 3139 ec46 2638 17f4 9d39
000001d0: 12d4 3638 d6b2 0d38 ccf9 bd38 6078 3338
000001e0: efc6 7439 9682 bd37 a69c 3739 3f49 ab37
000001f0: 1e20 0b39 c19d b538 082d e638 f8c4 8338
00000200: 12a2 8538 1aea 9038 4eab 3838 2692 f637
00000210: 77b6 8c38 0902 3a38 26ef eb38 f3bd aa38
00000220: 49aa 0739 b818 8638 106f 1838 d157 e837
00000230: 053b 1a38 3aca 1738 9e40 5739 f769 9a38
00000240: 1a66 e438 ef3e e438 f235 a138 53bb 7438
00000250: 69f7 8d38 5a29 2038 0dbd a938 18f4 0438
00000260: 9d0e 2b38 dcde 2c38 1e2e 3c38 6c85 3b3b
00000270: b596 d538 bc1c 0d38 ce5f 2939 a70e d937
00000280: 54b0 4538 0115 3d39 07a8 b838 5577 6138
00000290: 418d d838 8338 8c38 5d0c d038 9d17 a638
000002a0: 7b3c 4838 d555 2439 cc66 be38 4f42 a738
000002b0: 0388 f438 c72e bb38 63f4 bf38 2530 cb38
000002c0: 9793 7238 f2e2 2939 8252 ba39 534a cb38
000002d0: e796 e538 3122 3338 41f2 5c38 a241 6b38
000002e0: 08ba 4339 df38 6038 d258 9038 2cc7 b338
000002f0: 19fd 623b f427 5738 9da8 4e38 3400 bc37
00000300: 1c4d 1938 5616 6038 1956 4238 b799 7639
00000310: 8dd6 ce38 a396 3139 558e 1e38 f808 8538
00000320: 4103 5938 5084 6438 6122 f438 44c6 9b38
00000330: 275a 273a 1688 d338 77f0 0139 b9cf 4e39
00000340: a386 3138 e321 7938 2800 4538 8c61 6238
00000350: c3e9 d238 2be7 3f39 8f37 4c39 e939 d038
00000360: 28e7 e638 6e29 8638 c0bf 0a39 6f9d 0f39
00000370: 5142 b338 5d7b 0c39 2750 9638 550c 5138
00000380: cac0 8c38 7a42 b138 a994 3739 7340 8038
00000390: 6d2d 4538 d5a2 cf38 177a 6638 bb02 ab38
000003a0: 69e9 7f39 bddb 9e38 76b4 3f39 e874 1538
000003b0: c511 2138 5f50 d638 648e 8338 c724 1938
000003c0: c8e2 5639 ca24 7238 f22e 0438 ddd2 8338
000003d0: f358 3638 fa4d 8338 d97f a338 9a09 2538
000003e0: 4ff9 1439 50d9 9839 7ebe 2238 c6a1 d037
000003f0: d50b 4b38 ac22 0438 c229 3038 ae53 4a39

exp_avg f4 [3]
0.008350847 0.030736858 -0.0390877
00000000: fed1 083c ddcb fb3c 6d1a 20bd

exp_avg_sq f4 [3]
0.0022434474 0.0020953338 0.003015349
00000000: cd06 133b de51 093b 299d 453b
